…
:"code","metadata":{"id":"3v6p_LMWJTAE","colab_type":"code","colab":{"base_uri":"https://localhost:8080/","height":986},"executionInfo":{"status":"ok","timestamp":1595264249057,"user_tz":-420,"elapsed":5397,"user":{"displayName":"Khương Nguyễn","photoUrl":"https://lh3.googleusercontent.com/a-/AOh14GjPWFY3XZszme6W8HiZcjClBaDqztea0xFeU0Np=s64","userId":"11143955240066405073"}},"outputId":"d75522fe-bdab-4f39-a9b1-2ea51e6dce00"},"source":["%cd /content/darknet\n","!./darknet detector train yolo.data cfg/yolov3.cfg darknet53.conv.74"],"execution_count":8,"outputs":[{"output_type":"stream","text":["conv    512  3 x 3 / 1    38 x  38 x 256   ->    38 x  38 x 512  3.407 BFLOPs\n","   52 res   49                  38 x  38 x 512   ->    38 x  38 x 512\n","   53 conv    256  1 x 1 / 1    38 x  38 x 512   ->    38 x  38 x 256  0.379 BFLOPs\n","   54 conv    512  3 x 3 / 1    38 x  38 x 256   ->    38 x  38 x 512  3.407 BFLOPs\n","   55 res   52                  38 x  38 x 512   ->    38 x  38 x 512\n","   56 conv    256  1 x 1 / 1    38 x  38 x 512   ->    38 x  38 x 256  0.379 BFLOPs\n","   57 conv    512  3 x 3 / 1    38 x  38 x 256   ->    38 x  38 x 512  3.407 BFLOPs\n","   58 res   55                  38 x  38 x 512   ->    38 x  38 x 512\n","   59 conv    256  1 x 1 / 1    38 x  38 x 512   ->    38 x  38 x 256  0.379 BFLOPs\n","   60 conv    512  3 x 3 / 1    38 x  38 x 256   ->    38 x  38 x 512  3.407 BFLOPs\n","   61 res   58                  38 x  38 x 512   ->    38 x  38 x 512\n","   62 conv   1024  3 x 3 / 2    38 x  38 x 512   ->    19 x  19 x1024  3.407 BFLOPs\n","   63 conv    512  1 x 1 / 1    19 x  19 x1024   ->    19 x  19 x 512  0.379 BFLOPs\n","   64 conv   1024  3 x 3 / 1    19 x  19 x 512   ->    19 x  19 x1024  3.407 BFLOPs\n","   65 res   62                  19 x  19 x1024   ->    19 x  19 x1024\n","   66 conv    512  1 x 1 / 1    19 x  19 x1024   ->    19 x  19 x 512  0.379 BFLOPs\n","   67 conv   1024  3 x 3 / 1    19 x  19 x 512   ->    19 x  19 x1024  3.407 BFLOPs\n","   68 res   65                  19 x  19 x1024   ->    19 x  19 x1024\n","   69 conv    512  1 x 1 / 1    19 x  19 x1024   ->    19 x  19 x 512  0.379 BFLOPs\n","   70 conv   1024  3 x 3 / 1    19 x  19 x 512   ->    19 x  19 x1024  3.407 BFLOPs\n","   71 res   68                  19 x  19 x1024   ->    19 x  19 x1024\n","   72 conv    512  1 x 1 / 1    19 x  19 x1024   ->    19 x  19 x 512  0.379 BFLOPs\n","   73 conv   1024  3 x 3 / 1    19 x  19 x 512   ->    19 x  19 x1024  3.407 BFLOPs\n","   74 res   71                  19 x  19 x1024   ->    19 x  19 x1024\n","   75 conv    512  1 x 1 / 1    19 x  19 x1024   ->    19 x  19 x 512  0.379 BFLOPs\n","   76 conv   1024  3 x 3 / 1    19 x  19 x 512   ->    19 x  19 x1024  3.407 BFLOPs\n","   77 conv    512  1 x 1 / 1    19 x  19 x1024   ->    19 x  19 x 512  0.379 BFLOPs\n","   78 conv   1024  3 x 3 / 1    19 x  19 x 512   ->    19 x  19 x1024  3.407 BFLOPs\n","   79 conv    512  1 x 1 / 1    19 x  19 x1024   ->    19 x  19 x 512  0.379 BFLOPs\n","   80 conv   1024  3 x 3 / 1    19 x  19 x 512   ->    19 x  19 x1024  3.407 BFLOPs\n","   81 conv     18  1 x 1 / 1    19 x  19 x1024   ->    19 x  19 x  18  0.013 BFLOPs\n","   82 yolo\n","   83 route  79\n","   84 conv    256  1 x 1 / 1    19 x  19 x 512   ->    19 x  19 x 256  0.095 BFLOPs\n","   85 upsample            2x    19 x  19 x 256   ->    38 x  38 x 256\n","   86 route  85 61\n","   87 conv    256  1 x 1 / 1    38 x  38 x 768   ->    38 x  38 x 256  0.568 BFLOPs\n","   88 conv    512  3 x 3 / 1    38 x  38 x 256   ->    38 x  38 x 512  3.407 BFLOPs\n","   89 conv    256  1 x 1 / 1    38 x  38 x 512   ->    38 x  38 x 256  0.379 BFLOPs\n","   90 conv    512  3 x 3 / 1    38 x  38 x 256   ->    38 x  38 x 512  3.407 BFLOPs\n","   91 conv    256  1 x 1 / 1    38 x  38 x 512   ->    38 x  38 x 256  0.379 BFLOPs\n","   92 conv    512  3 x 3 / 1    38 x  38 x 256   ->    38 x  38 x 512  3.407 BFLOPs\n","   93 conv     18  1 x 1 / 1    38 x  38 x 512   ->    38 x  38 x  18  0.027 BFLOPs\n","   94 yolo\n","   95 route  91\n","   96 conv    128  1 x 1 / 1    38 x  38 x 256   ->    38 x  38 x 128  0.095 BFLOPs\n","   97 upsample            2x    38 x  38 x 128   ->    76 x  76 x 128\n","   98 route  97 36\n","   99 conv    128  1 x 1 / 1    76 x  76 x 384   ->    76 x  76 x 128  0.568 BFLOPs\n","  100 conv    256  3 x 3 / 1    76 x  76 x 128   ->    76 x  76 x 256  3.407 BFLOPs\n","  101 conv    128  1 x 1 / 1    76 x  76 x 256   ->    76 x  76 x 128  0.379 BFLOPs\n","  102 conv    256  3 x 3 / 1    76 x  76 x 128   ->    76 x  76 x 256  3.407 BFLOPs\n","  103 conv    128  1 x 1 / 1    76 x  76 x 256   ->    76 x  76 x 128  0.379 BFLOPs\n","  104 conv    256  3 x 3 / 1    76 x  76 x 128   ->    76 x  76 x 256  3.407 BFLOPs\n","  105 conv     18  1 x 1 / 1    76 x  76 x 256   ->    76 x  76 x  18  0.053 BFLOPs\n","  106 yolo\n","Loading weights from darknet53.conv.74...Couldn't open file: darknet53.conv.74\n"],"name":"stdout"}]}]}